ovos_audio_gender_classifier/male_ww.tflite (tflite, 16344 bytes, 6 tensors)

sequential/net/TensorArrayV2_1 f4 [1, 1, 20]
0.0 0.0 0.0 0.0 0.0 0.0 0.0 0.0
0.0 0.0 0.0 0.0 0.0 0.0 0.0 0.0
0.0 0.0 0.0 0.0
00000000: 0000 0000 0000 0000 0000 0000 0000 0000
00000010: 0000 0000 0000 0000 0000 0000 0000 0000
00000020: 0000 0000 0000 0000 0000 0000 0000 0000
00000030: 0000 0000 0000 0000 0000 0000 0000 0000
00000040: 0000 0000 0000 0000 0000 0000 0000 0000

sequential/dense/MatMul f4 [1, 20]
0.120140165 0.09983221 -0.42874688 -0.061972164 -0.28754404 -0.15938883 -0.3274793 0.18359163
0.4065882 0.27944595 0.16185814 -0.21047243 0.39284897 -0.21432565 0.15832366 -0.12193375
0.23730178 0.29088864 -0.041521113 -0.1752004
00000000: 0c0c f63d d474 cc3d b684 dbbe 86d6 7dbd
00000010: f938 93be d336 23be 5eab a7be 72ff 3b3e
00000020: 542c d03e 8a13 8f3e 24be 253e 1686 57be
00000030: 8023 c93e 2f78 5bbe 991f 223e 67b8 f9bd
00000040: 3dff 723e 5bef 943e 0b12 2abd bc67 33be

sequential/net/while/gru_cell/MatMul f4 [60, 13]
-0.07636019 0.061315898 0.068737835 0.047007367 -0.0535174 -0.13486542 0.19727102 0.15925209
0.021272656 0.4532675 0.20080987 -0.7065032 -0.47389588 -0.027793553 -0.03891698 -0.10917064
-0.057321854 -0.047998413 -0.3462955 -0.12890957 -0.14936697 -0.073096514 -0.14607218 0.024841001
-0.10060295 -0.042883083 0.0076602353 -0.04766048 0.266943 0.056437682 0.19975431 0.050566856
-0.012345929 -0.24989288 0.003540893 0.07891501 -0.012792615 0.121482484 -0.20973267 -0.09183126
0.018003864 -0.011783725 -0.30278224 0.22033319 0.031379085 -0.44430345 0.34748998 -0.02353347
-0.49612287 0.19537336 0.1137485 0.3120744 -0.04944997 0.09462228 0.35609472 0.04539836
-0.15223363 -0.020163618 -0.011458351 -0.09790013 0.5494739 0.07900672 -0.24639268 -0.70456827
0.07277207 0.06632137 -0.07071839 -0.10278094 0.039747126 0.08132928 0.019108348 0.065252446
0.26004118 0.07222648 -0.38776654 -0.24404761 0.2877726 -0.56592405 -0.014027393 0.04113668
0.04830157 -0.07742337 0.3165638 0.09304146 -0.24131626 -0.09287744 -0.07315014 0.09468349
-0.0599378 -0.11925289 -0.018221926 -0.036606584 0.06783735 0.0057083643 0.086732835 -0.046347417
-0.17171569 -0.3557177 0.5242443 0.396062 0.05131077 -0.013268079 0.42607597 0.7239454
0.13192838 -0.011188924 0.0034321137 -0.1936445 0.09774173 0.07245647 0.006994174 0.10545006
0.069529824 -0.17824957 -0.27201724 0.007863651 -0.04326455 -0.07313142 0.0020869873 -0.009166886
-0.25492647 0.04154899 -0.011939535 0.13945794 -0.027873326 -0.24033238 -0.26083624 -0.24983208
-0.060297716 -0.046133857 -0.08396942 -0.30076033 -0.012246814 0.10462711 0.21497975 -0.04517582
-0.19102277 0.019308615 0.4638586 -0.073365085 0.0618588 -0.58824503 0.10706051 0.008929719
0.08478884 0.10100376 -0.056235548 -0.027205901 -0.09690255 0.040120896 -0.40066612 -0.369877
0.22138083 0.5835346 0.32653692 -0.3512575 -0.111887835 0.05664432 -0.07007536 0.10883097
-0.10171569 0.06648819 -0.087902635 0.082732126 0.029086744 0.27228352 -0.0760433 0.090466335
-0.16301051 0.20355393 -0.14483961 -0.007879588 0.016776193 0.0552873 0.064422354 0.1700846
0.067053854 -0.3538801 0.15938939 0.05777199 0.034965396 -0.16932894 0.31154022 0.14252807
-0.20741774 0.1802025 -0.121927485 -0.2288539 -0.0078316 -0.24667181 -0.061938748 -0.36582345
-0.37602928 -0.34086972 0.16108748 -0.06279206 -0.13525921 0.03698897 0.14078917 0.26468998
0.04396145 -0.1617163 0.10626461 -0.04978666 0.25729358 0.28475827 0.13958396 -0.0038645098
0.011560845 -0.03800513 -0.01783258 -0.26825148 0.1211521 0.23402296 -0.17264085 -0.39543563
0.48962486 0.037709918 0.32348844 0.2152258 -0.3571694 -0.08074867 -0.06430798 0.124738015
0.025680356 0.026940841 0.1428125 -0.068458095 0.06404805 0.24745424 0.050442092 0.050695542
0.2090961 -0.1051846 0.025575824 0.037958544 -0.16678546 -0.018767504 0.24534725 -0.23441318
-0.20470855 0.11947127 -0.07403938 -0.14339434 0.5529778 0.049558118 -0.15815023 0.12540989
0.031124078 0.14566799 -0.25060272 0.14931157 0.37835217 -0.004312681 0.12490592 0.03662098
00000000: bb62 9cbd 6126 7b3d 6cc6 8c3d cc8a 403d
00000010: 1035 5bbd 291a 0abe 6a01 4a3e fb12 233e
00000020: fe43 ae3c ae12 e83e 1aa1 4d3e 65dd 34bf
00000030: 7ba2 f2be 4eaf e3bc 6967 1fbd db94 dfbd
00000040: 52ca 6abd fc99 44bd a54d b1be df00 04be
00000050: a8f3 18be a0b3 95bd f293 15be 5b7f cb3c
00000060: eb08 cebd 2ca6 2fbd b602 fb3b a337 43bd
00000070: c1ac 883e 332b 673d 658c 4c3e 311f 4f3d
00000080: 9446 4abc ebe3 7fbe 540e 683b 319e a13d
00000090: 1e98 51bc cfcb f83d 29c4 56be 0712 bcbd
000000a0: d77c 933c 8610 41bc 4606 9bbe 069f 613e
000000b0: 5b87 003d be7b e3be 35ea b13e 44c9 c0bc
000000c0: d103 febe f40f 483e f9f4 e83d 37c8 9f3e
000000d0: 0d8c 4abd 53c9 c13d 0c52 b63e a1f3 393d
000000e0: 22e3 1bbe 2c2e a5bc cfbb 3bbc dd7f c8bd
000000f0: 52aa 0c3f 46ce a13d 5d4e 7cbe 965e 34bf
00000100: 8609 953d 80d3 873d ced4 90bd d07e d2bd
00000110: e2cd 223d f78f a63d 1c89 9c3c 13a3 853d
00000120: 1e24 853e 7aeb 933d 5689 c6be 9ee7 79be
00000130: ee56 933e 66e0 10bf 27d3 65bc ef7e 283d
00000140: ded7 453d 2590 9ebd a714 a23e 858c be3d
00000150: 9c1b 77be 8736 bebd becf 95bd 6be9 c13d
00000160: 5781 75bd dc3a f4bd 2646 95bc c9f0 15bd
00000170: 4fee 8a3d 3b0d bb3b fca0 b13d cad6 3dbd
00000180: 3dd6 2fbe a120 b6be e034 063f a3c8 ca3e
00000190: 3e2b 523d 5b62 59bc a126 da3e 7c54 393f
000001a0: 3c18 073e c051 37bc 50ed 603b be4a 46be
000001b0: d12c c83d 0f64 943d 622f e53b 33f6 d73d
000001c0: a765 8e3d 0e87 36be d845 8bbe 8bd6 003c
000001d0: 2b36 31bd edc5 95bd d6c5 083b b530 16bc
000001e0: b985 82be 462f 2a3d 0a9e 43bc 10ce 0e3e
000001f0: 9a56 e4bc b119 76be 548c 85be fbd3 7fbe
00000200: bdfa 76bd dbf6 3cbd 29f8 abbd 42fd 99be
00000210: dca6 48bc bd46 d63d a723 5c3e 480a 39bd
00000220: 799b 43be 1a2d 9e3c e07e ed3e 6f40 96bd
00000230: a75f 7d3d 3a97 16bf 8a42 db3d f54d 123c
00000240: c5a5 ad3d 0fdb ce3d 3f57 66bd e9de debc
00000250: d874 c6bd cf55 243d 1c24 cdbe 8560 bdbe
00000260: a8b1 623e 8662 153f d92f a73e 06d8 b3be
00000270: 7325 e5bd e003 683d ac83 8fbd c6e2 de3d
00000280: 5150 d0bd f62a 883d 4c06 b4bd 766f a93d
00000290: 5347 ee3c bf68 8b3e 97bc 9bbd 6a46 b93d
000002a0: 3aec 26be 7170 503e d650 14be 6319 01bc
000002b0: 3a6e 893c f074 623d deef 833d a82a 2e3e
000002c0: 8853 893d c62f b5be f936 233e 52a2 6c3d
000002d0: e037 0f3d 9164 2dbe 3382 9f3e e1f2 113e
000002e0: 5165 54be 0187 383e 1eb5 f9bd ad58 6abe
000002f0: 1c50 00bc 8997 7cbe 7cb3 7dbd 364d bbbe
00000300: e986 c0be 7a86 aebe 1ef4 243e 2099 80bd
00000310: 6481 0abe bf81 173d 092b 103e 7285 873e
00000320: ec10 343d f598 25be 43a1 d93d 19ed 4bbd
00000330: fcbb 833e d6cb 913e 19ef 0e3e b743 7dbb
00000340: b369 3d3c 44ab 1bbd a115 92bc 4258 89be
00000350: 981e f83d b7a3 6f3e c3c8 30be 8a76 cabe
00000360: 1cb0 fa3e b775 1a3d 47a0 a53e 2764 5c3e
00000370: e8de b6be 8f5f a5bd e7b3 83bd a576 ff3d
00000380: 9c5f d23c 0ab3 dc3c 713d 123e c233 8cbd
00000390: a02b 833d a564 7d3e 5e9c 4e3d 21a6 4f3d
000003a0: 4a1d 563e 066b d7bd 6484 d13c 6b7a 1b3d
000003b0: cfc9 2abe 4fbe 99bc 4f3c 7b3e 020a 70be
000003c0: 1e9f 51be 5aad f43d f5a1 97bd f7d5 12be
000003d0: f48f 0d3f 74fd 4a3d 22f2 21be 736b 003e
000003e0: ecf7 fe3c fd29 153e 004f 80be 22e5 183e
000003f0: 60b7 c13e 6451 8dbb adce ff3d e1ff 153d

sequential/net/while/gru_cell/unstack f4 [60]
0.52849513 0.2738941 0.30472565 0.21602158 0.5841345 0.27119502 0.27161843 0.42654085
0.49520853 0.26381856 0.5198905 0.18749419 0.5457323 0.23109077 0.5222152 0.09750827
0.0748617 0.13410035 0.31177053 0.38956198 0.38620284 0.16619933 -0.039588794 -0.0314485
-0.15283044 0.12980156 -0.11054854 0.025337435 0.17767935 0.08135204 -0.122805364 0.14221577
0.12946706 0.10278265 -0.15954214 0.06416058 0.108947255 0.20370036 0.07169594 -0.008893434
-0.044028863 -0.18000802 0.35679233 0.05902399 0.003001489 -0.028077723 0.12730338 0.0048498847
0.45779604 0.085249044 0.20885925 -0.100591354 0.34547195 -0.0029370948 0.19337872 -0.307419
0.16678114 -0.24272041 -0.036066547 -0.046776842
00000000: 754b 073f d93b 8c3e 0005 9c3e c334 5d3e
00000010: d789 153f 13da 8a3e 9211 8b3e 9063 da3e
00000020: f98b fd3e 3a13 873e 8b17 053f 7afe 3f3e
00000030: 1db5 0b3f 0fa3 6c3e e5af 053f 6ab2 c73d
00000040: 1751 993d 9a51 093e 63a0 9f3e ab74 c73e
00000050: 61bc c53e 2830 2a3e dc27 22bd 24d0 00bd
00000060: 957f 1cbe b3ea 043e 4667 e2bd 7490 cf3c
00000070: 93f1 353e e69b a63d 6181 fbbd 03a1 113e
00000080: 0393 043e b67f d23d 045f 23be 9f66 833d
00000090: bd1f df3d d496 503e 52d5 923d c4b5 11bc
000000a0: 9c57 34bd 0654 38be 7cad b63e 24c3 713d
000000b0: a1b4 443b 4103 e6bc d15b 023e c8eb 9e3b
000000c0: 3e64 ea3e 0d97 ae3d 33df 553e d702 cebd
000000d0: b3e1 b03e 467c 40bb 1205 463e 0666 9dbe
000000e0: adc8 2a3e b38b 78be 84ba 13bd 1399 3fbd

sequential/net/while/gru_cell/unstack1 f4 [60]
0.52849513 0.2738941 0.30472565 0.21602158 0.5841345 0.27119502 0.27161843 0.42654085
0.49520853 0.26381856 0.5198905 0.18749419 0.5457323 0.23109077 0.5222152 0.09750827
0.0748617 0.13410035 0.31177053 0.38956198 0.38620284 0.16619933 -0.039588794 -0.0314485
-0.15283044 0.12980156 -0.11054854 0.025337435 0.17767935 0.08135204 -0.122805364 0.14221577
0.12946706 0.10278265 -0.15954214 0.06416058 0.108947255 0.20370036 0.07169594 -0.008893434
-0.020649917 -0.28303674 0.14290613 0.023618292 -0.06101708 0.066350274 -0.042026155 -0.046187397
0.4210785 -0.018044349 0.20862278 -0.015714815 0.08837215 -0.045845136 -0.25885385 -0.3011608
0.073309004 -0.23051739 0.050409794 -0.19618829
00000000: 754b 073f d93b 8c3e 0005 9c3e c334 5d3e
00000010: d789 153f 13da 8a3e 9211 8b3e 9063 da3e
00000020: f98b fd3e 3a13 873e 8b17 053f 7afe 3f3e
00000030: 1db5 0b3f 0fa3 6c3e e5af 053f 6ab2 c73d
00000040: 1751 993d 9a51 093e 63a0 9f3e ab74 c73e
00000050: 61bc c53e 2830 2a3e dc27 22bd 24d0 00bd
00000060: 957f 1cbe b3ea 043e 4667 e2bd 7490 cf3c
00000070: 93f1 353e e69b a63d 6181 fbbd 03a1 113e
00000080: 0393 043e b67f d23d 045f 23be 9f66 833d
00000090: bd1f df3d d496 503e 52d5 923d c4b5 11bc
000000a0: 042a a9bc 31ea 90be fc55 123e 267b c13c
000000b0: 0ced 79bd a7e2 873d 9e23 2cbd ff2e 3dbd
000000c0: 9a97 d73e bed1 93bc 36a1 553e 5bbc 80bc
000000d0: 75fc b43d 1cc8 3bbd 7e88 84be c031 9abe
000000e0: 0823 963d c00c 6cbe 807a 4e3d 95e5 48be

sequential/net/while/gru_cell/MatMul_1 i1 [60, 20] scale=0.0073789223 zero_point=0
-0.051652458 -0.25088337 -0.073789224 0.3689461 -0.38370395 0.0664103 0.073789224 0.20660983
-0.09592599 0.073789224 0.1328206 0.32467258 -0.073789224 -0.19923091 -0.088547066 0.0
0.15495737 -0.15495737 -0.05903138 -0.21398875 -0.022136766 0.14019953 -0.036894612 -0.110683836
0.02951569 0.14757845 0.12544169 0.14019953 -0.09592599 0.15495737 0.12544169 -0.051652458
0.051652458 -0.19185197 0.17709413 -0.036894612 0.0073789223 -0.0664103 -0.09592599 0.110683836
-0.11806276 0.05903138 0.16971521 -0.036894612 0.014757845 0.036894612 -0.02951569 -0.19923091
0.33205152 0.05903138 0.16233629 0.014757845 -0.088547066 0.02951569 -0.022136766 -0.20660983
0.1328206 0.11806276 -0.09592599 0.20660983 0.12544169 -0.014757845 0.044273533 0.30991474
-0.28039905 0.12544169 0.19185197 0.16233629 -0.09592599 0.0073789223 -0.051652458 0.088547066
-0.2656412 -0.14757845 -0.11806276 0.15495737 -0.022136766 -0.073789224 -0.14019953 0.022136766
0.02951569 -0.16971521 0.34680936 0.081168145 0.20660983 -0.051652458 0.073789224 0.051652458
-0.15495737 -0.31729367 0.036894612 0.09592599 0.23612551 0.022136766 0.0 -0.081168145
-0.022136766 -0.051652458 0.103304915 0.081168145 0.051652458 0.0073789223 -0.02951569 0.0073789223
0.27302012 0.022136766 0.12544169 0.09592599 0.0073789223 -0.19923091 -0.022136766 0.05903138
0.0 -0.110683836 -0.05903138 -0.27302012 -0.036894612 -0.12544169 0.28039905 -0.103304915
-0.23612551 -0.0073789223 0.35418826 -0.24350443 0.05903138 0.0073789223 0.28777796 0.30991474
-0.044273533 -0.014757845 -0.27302012 0.09592599 0.0 -0.22136767 -0.09592599 -0.1328206
-0.081168145 -0.036894612 0.15495737 0.2287466 0.1328206 -0.21398875 0.1328206 0.19923091
-0.19185197 -0.036894612 -0.05903138 0.5607981 -0.073789224 -0.1328206 0.0 -0.17709413
-0.103304915 -0.073789224 0.21398875 0.32467258 0.0073789223 -0.103304915 -0.19923091 0.051652458
0.081168145 0.05903138 0.103304915 -0.14757845 -0.15495737 0.16971521 0.28777796 0.036894612
0.27302012 0.022136766 -0.0664103 -0.022136766 -0.11806276 -0.24350443 -0.11806276 -0.110683836
0.15495737 -0.14757845 -0.014757845 -0.110683836 0.051652458 0.19185197 -0.051652458 0.051652458
-0.02951569 0.088547066 0.0073789223 0.0 -0.073789224 0.09592599 0.051652458 0.22136767
-0.16971521 -0.17709413 0.103304915 0.022136766 -0.088547066 -0.014757845 0.19923091 -0.37632504
0.2287466 0.036894612 -0.21398875 -0.21398875 0.18447305 0.02951569 -0.022136766 0.33205152
-0.3025358 -0.014757845 0.19923091 0.12544169 -0.103304915 -0.02951569 -0.19923091 -0.2951569
-0.081168145 -0.33943042 -0.0664103 -0.23612551 -0.05903138 0.051652458 -0.103304915 -0.18447305
-0.33205152 -0.16971521 0.02951569 -0.014757845 -0.0073789223 0.09592599 -0.14019953 0.0664103
0.24350443 -0.24350443 -0.088547066 0.09592599 -0.51652455 -0.30991474 -0.1328206 0.022136766
-0.16971521 0.0 0.110683836 -0.39108288 0.0664103 -0.022136766 0.044273533 0.15495737
-0.16233629 0.0 0.14019953 -0.0073789223 -0.11806276 -0.051652458 -0.022136766 -0.014757845
00000000: f9de f632 cc09 0a1c f30a 122c f6e5 f400
00000010: 15eb f8e3 fd13 fbf1 0414 1113 f315 11f9
00000020: 07e6 18fb 01f7 f30f f008 17fb 0205 fce5
00000030: 2d08 1602 f404 fde4 1210 f31c 11fe 062a
00000040: da11 1a16 f301 f90c dcec f015 fdf6 ed03
00000050: 04e9 2f0b 1cf9 0a07 ebd5 050d 2003 00f5
00000060: fdf9 0e0b 0701 fc01 2503 110d 01e5 fd08
00000070: 00f1 f8db fbef 26f2 e0ff 30df 0801 272a
00000080: fafe db0d 00e2 f3ee f5fb 151f 12e3 121b
00000090: e6fb f84c f6ee 00e8 f2f6 1d2c 01f2 e507
000000a0: 0b08 0eec eb17 2705 2503 f7fd f0df f0f1
000000b0: 15ec fef1 071a f907 fc0c 0100 f60d 071e
000000c0: e9e8 0e03 f4fe 1bcd 1f05 e3e3 1904 fd2d
000000d0: d7fe 1b11 f2fc e5d8 f5d2 f7e0 f807 f2e7
000000e0: d3e9 04fe ff0d ed09 21df f40d bad6 ee03
000000f0: e900 0fcb 09fd 0615 ea00 13ff f0f9 fdfe
